2주차(0827)/1조/강수민/mnist_test.pt (torch, 408543 bytes, 4 tensors)

fc.0.weight f4 [128, 784]
0.023676435 -0.0078669535 0.024441702 0.010138938 -0.031129574 0.01892755 -0.015541043 0.0020531034
-0.018354042 -0.006665873 0.0040939497 0.018648421 -0.04972292 -0.075165726 -0.023759227 -0.028250989
0.02343997 0.006531588 -0.017524583 -0.009643193 -0.015477041 0.027431937 0.023001349 -0.018981675
-0.01592039 -0.028017804 -0.032860093 -0.021134475 -0.008856659 0.012223462 -0.01789627 -0.0106954705
-0.0100305015 -0.060955018 -0.14308584 -0.15564835 -0.04542042 -0.09107903 -0.12586261 -0.03203592
-0.0010612844 -0.08297797 -0.0022128958 -0.1695015 -0.23754425 -0.1820886 -0.10429481 -0.086199656
-0.09747327 -0.016046256 -0.024491195 -0.09386096 -0.0104822265 0.013939152 0.00784438 0.006779697
0.033762127 -0.02522793 -0.05104117 -0.049486235 -0.10163492 -0.016559439 -0.07602584 -0.11508529
-0.032816336 0.025343198 -0.065847896 -0.11956417 -0.038452987 0.053116877 0.09732537 -0.07672647
-0.05739274 -0.047891155 -0.0035144899 0.007312224 0.058486983 0.051907185 0.069654115 0.09018602
0.08776306 -0.0028528885 0.017443765 -0.028299175 0.0005140858 0.0246908 -0.06173658 -0.10279859
0.014952168 0.0838014 0.062443957 0.052905407 0.04905878 0.020775711 0.03902612 0.19496916
0.079822555 0.05997503 0.04163153 -0.033414625 0.056707837 0.035107773 0.05183986 0.12839958
0.11504818 0.08740114 0.07828778 0.11615248 0.20151067 0.13910474 0.09652747 -0.025820572
0.000119652075 -0.01512187 -0.0006876858 0.00537593 0.18935747 0.26868755 0.15089594 0.1316586
0.17731471 0.092063256 0.039427444 0.041526053 -0.0017738492 0.050874345 -0.036327813 -0.08699887
-0.09658179 -0.09439127 -0.065632075 0.01856024 0.015317839 -0.02129626 -0.007835669 0.009196745
0.11852404 0.033204652 0.0777001 0.046499953 0.031114127 0.032831457 -0.033747923 0.074951015
0.32878503 0.25517297 0.12996829 0.06693195 0.048671693 0.037005957 0.043152656 -0.017848328
0.02432577 -0.008126928 -0.056672134 -0.013832059 -0.039401557 -0.10834055 -0.09466197 -0.070069194
-0.040703256 -0.055125527 -0.09153881 0.01136601 0.07162856 0.18336129 0.08882422 0.086023435
-0.034915775 -0.02852592 0.016950112 0.1671723 0.20431133 0.10550098 0.097966164 0.09583756
0.10164292 0.071146905 0.044221528 0.006694065 0.03981372 0.0028345366 0.057543386 0.04201996
0.07286166 0.013847058 -0.048352633 -0.11951166 -0.09257592 -0.01826333 -0.08205535 -0.03923958
-0.043375425 0.08055022 0.1053137 0.0101771485 0.011976115 0.07048473 -0.053269688 0.22804408
0.2031468 0.088696025 0.07933129 0.13203163 0.07327776 0.066323176 0.0059463163 -0.026515922
-0.025091717 0.017407103 0.059164878 0.06694889 0.024108578 0.017982718 -0.043811005 -0.03513418
-0.015443799 -0.085129485 -0.026445853 -0.07066446 -0.039951384 0.04171686 0.13183552 0.043383963
-0.07807175 -0.057701502 -0.041057225 0.18853442 0.23355146 0.114421576 0.12946355 0.13423845
0.09045267 -0.01743169 -0.044570617 -0.056016117 -0.06292483 0.009894954 0.097365536 0.044216085
0.022857172 0.0056437706 -0.047616463 0.024508512 0.048565853 -0.03741026 -0.090086035 -0.18042287
-0.06681683 0.0042789546 0.10720545 -0.006761708 -0.055993713 -0.021018188 0.10159403 0.114495076
00000000: 15f5 c13c 65e4 00bc f739 c83c ca1d 263c
00000010: 7303 ffbc f30d 9b3c dc9f 7ebc 5c8d 063b
00000020: 375b 96bc 656d dabb 8a26 863b 93c4 983c
00000030: 43aa 4bbd 7df0 99bd b6a2 c2bc 9e6e e7bc
00000040: 2e05 c03c ee06 d63b b78f 8fbc 7cfe 1dbc
00000050: 6a93 7dbc f1b8 e03c 536d bc3c 757f 9bbc
00000060: 7a6b 82bc 9885 e5bc 4e98 06bd 3522 adbc
00000070: 851b 11bc ea44 483c 339b 92bc 0e3c 2fbc
00000080: f956 24bc f8ab 79bd 1885 12be 4862 1fbe
00000090: c30a 3abd a487 babd 21e2 00be 1938 03bd
000000a0: cc1a 8bba 5bf0 a9bd 3b06 11bb cd91 2dbe
000000b0: cd3e 73be 6f75 3abe 8498 d5bd 7289 b0bd
000000c0: 11a0 c7bd 7073 83bc c2a1 c8bc 2d3a c0bd
000000d0: a5bd 2bbc 0a61 643c b785 003c 3828 de3b
000000e0: 284a 0a3d ceaa cebc 8c10 51bd 14b2 4abd
000000f0: f825 d0bd a9a7 87bc 70b3 9bbd d6b1 ebbd
00000100: 6c6a 06bd 8a9c cf3c 43db 86bd 0fde f4bd
00000110: e180 1dbd 1591 593d 8652 c73d c422 9dbd
00000120: a614 6bbd 8429 44bd 5b53 66bb 619b ef3b
00000130: 0c90 6f3d a19c 543d d1a6 8e3d 73b3 b83d
00000140: 1fbd b33d 87f7 3abb 3ae6 8e3c acd3 e7bc
00000150: b7c3 063a 5c44 ca3c 7fdf 7cbd 1188 d2bd
00000160: f0f9 743c 12a0 ab3d 3cc5 7f3d 57b3 583d
00000170: dcf1 483d d331 aa3c dad9 1f3d ffa5 473e
00000180: 027a a33d 61a8 753d d385 2a3d c6dd 08bd
00000190: 7a46 683d 2bcd 0f3d 0856 543d 2e7b 033e
000001a0: 619e eb3d 5eff b23d 5855 a03d 5ae1 ed3d
000001b0: d058 4e3e 7971 0e3e 32b0 c53d aa85 d3bc
000001c0: b8ed fa38 b8c1 77bc d045 34ba 9228 b03b
000001d0: ede6 413e 6a91 893e 7784 1a3e 83d1 063e
000001e0: fd91 353e a98b bc3d ac7e 213d 3917 2a3d
000001f0: 8180 e8ba 9e61 503d 79cc 14bd 772c b2bd
00000200: accc c5bd 3650 c1bd 1c6a 86bd a50b 983c
00000210: acf7 7a3c 7f75 aebc 2e61 00bc f2ad 163c
00000220: bbbc f23d 9a01 083d 3b21 9f3d bc76 3e3d
00000230: 0ee3 fe3c 477a 063d 433b 0abd eb7f 993d
00000240: 8356 a83e 08a6 823e 6816 053e 9e13 893d
00000250: f85b 473d 8f93 173d d7c0 303d a836 92bc
00000260: d646 c73c ce26 05bc 0a21 68bd dc9f 62bc
00000270: 8763 21bd a6e1 ddbd 23de c1bd 7080 8fbd
00000280: 75b8 26bd 4ecb 61bd b378 bbbd 8038 3a3c
00000290: ffb1 923d 10c3 3b3e 79e9 b53d 0e2d b03d
000002a0: d803 0fbd 31af e9bc f6da 8a3c 372f 2b3e
000002b0: fd36 513e e610 d83d 7ca2 c83d 7c46 c43d
000002c0: 2a2a d03d 78b5 913d a221 353d e359 db3b
000002d0: b613 233d a2c3 393b 9db2 6b3d 1f1d 2c3d
000002e0: 7e38 953d c5de 623c 690d 46bd 87c2 f4bd
000002f0: 7298 bdbd fb9c 95bc a30c a8bd afb9 20bd
00000300: 6eaa 31bd 84f7 a43d b6ae d73d 0ebe 263c
00000310: 7837 443c 4c5a 903d 5131 5abd 6384 693e
00000320: b705 503e 43a6 b53d 7278 a23d 4d33 073e
00000330: a612 963d 72d4 873d 51d9 c23b eb37 d9bc
00000340: 258d cdbc 5799 8e3c df56 723d 801c 893d
00000350: 5a7f c53c 7e50 933c 2b73 33bd dce8 0fbd
00000360: fd07 7dbc 5e58 aebd f9a4 d8bc 87b8 90bd
00000370: 10a4 23bd 4cdf 2a3d e4ff 063e 62b3 313d
00000380: 15e4 9fbd 6958 6cbd 9f2b 28bd 2b0f 413e
00000390: 1d28 6f3e dc55 ea3d 1892 043e ce75 093e
000003a0: 403f b93d e7cc 8ebc ae8f 36bd 2871 65bd
000003b0: bcde 80bd 721e 223c 9567 c73d ed1b 353d
000003c0: f73e bb3c 61ef b83b 7b09 43bd 13c6 c83c
000003d0: fdec 463d 803b 19bd 077f b8bd c6c0 38be
000003e0: 43d7 88bd 7936 8c3b 888e db3d 5191 ddbb
000003f0: aa59 65bd 562e acbc 8810 d03d 657c ea3d

fc.0.bias f4 [128]
-0.073478356 0.097971745 0.016973456 -0.005409709 -0.06248729 0.13056092 0.24762174 -0.046594348
-0.0005306479 0.02218835 0.18683504 0.25061435 0.033451106 0.13216545 -0.074134804 -0.08109635
0.13610949 0.17678447 0.114891924 0.0047488757 -0.022679921 0.059415933 0.015320735 0.1251373
-0.23284644 -0.031146264 0.22004475 -0.091913335 -0.1030093 0.08830952 -0.024034822 -0.04101425
0.075614214 -0.15453641 0.120744295 0.28083926 -0.043725852 -0.107493185 0.039380047 0.11131113
0.011285698 0.14369953 -0.13391119 0.11876573 0.07990919 -0.1119126 -0.13237233 0.30639836
-0.11165749 -0.024508169 -0.1385295 0.09723326 0.08090649 -0.21719874 -0.004367627 0.2086274
0.1524808 0.08773904 0.0073417835 -0.14206217 0.27375 0.024660092 0.08819383 -0.08245579
0.19788174 0.1464387 0.19335645 -0.12242655 0.24813382 0.026008978 -0.057238165 0.094409324
0.14382419 0.26678666 0.08547922 0.056936163 -0.1520213 -0.22849275 0.11446636 0.12396827
0.10951993 -0.050384223 0.013149948 0.0745196 0.11625085 -0.051308822 -0.012110628 -0.094870165
-0.16019696 0.012961145 0.14894417 0.2760121 0.0899274 0.015791865 -0.0691092 -0.1293953
0.07646736 -0.07091352 0.012370634 0.08344364 0.11437806 0.0793598 -0.079062894 0.23558715
0.08786609 -0.07618084 0.0658584 -0.017570827 -0.13627352 -0.014867609 -0.007694969 -0.0456546
0.07898898 -0.17478994 0.090948746 0.17408554 -0.21583308 0.15313931 0.047814555 0.19092911
0.07045532 0.17828304 0.09076871 0.05562926 -0.08093276 0.15417612 0.10063969 0.13570349
00000000: d27b 96bd 69a5 c83d eb0b 8b3c ee43 b1bb
00000010: acf2 7fbd c3b1 053e 8e90 7d3e b7d9 3ebd
00000020: 2e1b 0bba 58c4 b53c af51 3f3e 8650 803e
00000030: 0704 093d 6156 073e fdd3 97bd d815 a6bd
00000040: 4960 0b3e fd06 353e 754c eb3d 759c 9b3b
00000050: 3ecb b9bc 1f5e 733d d203 7b3c fe23 003e
00000060: 4c6f 6ebe 7326 ffbc 6953 613e 0f3d bcbd
00000070: 8af6 d2bd 9fdb b43d ade4 c4bc 8ffe 27bd
00000080: a0db 9a3d cb3e 1ebe c948 f73d 2aca 8f3e
00000090: e119 33bd 6325 dcbd f94c 213d 17f7 e33d
000000a0: a6e7 383c f825 133e 0420 09be 723b f33d
000000b0: 6ea7 a33d 6f32 e5bd 9d8c 07be 3fe0 9c3e
000000c0: afac e4bd 5bc5 c8bc adda 0dbe 3b22 c73d
000000d0: 4db2 a53d 5969 5ebe 501e 8fbb 6ca2 553e
000000e0: ed23 1c3e 87b0 b33d 5893 f03b bf78 11be
000000f0: f628 8c3e f603 ca3c f79e b43d 95de a8bd
00000100: 83a1 4a3e 07f4 153e 3cff 453e c5ba fabd
00000110: cb16 7e3e c810 d53c 9172 6abd ad59 c13d
00000120: a646 133e 4398 883e bb0f af3d e535 693d
00000130: 79ab 1bbe 01fa 69be 576d ea3d 14e3 fd3d
00000140: fc4b e03d b05f 4ebd e172 573c bb9d 983d
00000150: ed14 ee3d 3329 52bd a86b 46bc 4a4b c2bd
00000160: ac0a 24be fb5a 543c d284 183e 7551 8d3e
00000170: db2b b83d f15d 813c 2089 8dbd 3480 04be
00000180: eb9a 9c3d 1c3b 91bd 33ae 4a3c 80e4 aa3d
00000190: 0b3f ea3d 6487 a23d baeb a1bd c23d 713e
000001a0: 23f3 b33d b304 9cbd c5e0 863d b2f0 8fbc
000001b0: 498b 0bbe 4697 73bc 1426 fcbb 5100 3bbd
000001c0: f9c4 a13d 22fc 32be 5643 ba3d 7b43 323e
000001d0: 5903 5dbe 8dd0 1c3e 32d9 433d ec82 433e
000001e0: e14a 903d d48f 363e f2e4 b93d 82db 633d
000001f0: 13c0 a5bd 58e0 1d3e 2f1c ce3d dbf5 0a3e

fc.3.weight f4 [10, 128]
0.090485305 0.091965005 -0.030764993 -0.5887023 0.14008142 -0.014893566 -0.2001698 0.15553425
-0.40100217 -0.074481376 -0.56495905 -0.09614832 -0.5561485 0.12627581 -0.043719962 0.12349774
0.08230819 0.09156975 0.039922383 -0.41619563 0.09656988 0.007500814 -0.2326946 0.08560593
-0.19650073 0.16113108 -0.3267845 0.0017462919 0.19535224 0.009699344 0.089125805 -0.20399301
-0.79738754 0.1471021 -0.16356544 -0.18789655 -0.043033525 0.045235146 -0.030062 -0.019088814
-0.10084644 -0.7267574 -0.18394457 -0.33274496 0.104146264 0.015462042 -0.098180436 -0.21680227
-0.15128627 0.16543403 0.20022863 0.10289662 0.12254637 0.0061094137 -0.19133115 0.20033947
0.025742978 -0.35691997 -0.29449236 0.20901175 0.19777206 -0.33917722 -0.114939496 -0.07163908
-0.5325548 0.06726042 -0.21047586 -0.41891122 -0.008207109 0.21444571 0.09841134 -0.36929685
0.102374844 -0.33697563 -0.1652748 -0.066792555 -0.045911353 -0.37165964 -0.1655489 -0.23117882
0.1702333 -0.3943785 -0.10154674 0.1819391 -0.14135961 0.079652175 0.28521505 -0.39521596
0.12721089 -0.5096731 0.13699421 -0.7073083 0.0041700844 -0.6831555 0.21779285 -0.20582592
-0.76007944 -0.36834925 -0.2047299 -0.20319925 -0.6466315 -0.1277741 0.079766534 -0.49916852
-0.13970949 0.030727416 -0.5120771 -0.26649907 0.10057457 -0.4002867 0.1903127 0.1359092
-0.25285074 0.10746833 0.2394238 0.029030249 0.21176091 -0.1659131 0.086868584 -0.19031666
0.19916464 -0.36479637 0.0430484 -0.023392556 0.15790117 -0.24584512 0.062003363 -0.4747117
-0.20773427 -0.21992716 0.11317565 0.07414896 0.0068054167 -0.38570696 -0.020609725 -0.5889863
0.28402868 -0.28130552 -0.42244843 0.11368226 0.02150347 0.16928281 -0.26399782 -0.19180226
-0.4723215 -0.3526329 -0.5919174 0.27116054 -0.2541168 0.12547949 -0.01501264 -0.08167197
-0.23537304 0.045475177 0.19375542 0.14848591 -0.2623475 0.110746324 -0.29576895 0.39951307
0.19825912 -0.07482025 -0.22846092 0.21481368 0.26697028 -0.49085 0.16134803 0.08872171
-0.34395558 0.15455022 -0.28445473 0.08447952 -0.5524836 0.122931026 0.262561 -0.19146636
0.18172057 -0.39672285 -0.09929815 0.013393942 0.039098043 0.013968039 -0.08200807 0.26964656
-0.76107603 0.031736832 0.17608091 -0.2506779 -0.81368417 -0.01329324 -0.09940565 -0.14714046
0.21007961 -0.1388112 -0.46394235 -0.13626982 0.4287702 0.07476796 -0.110219896 -0.21375427
-0.10551104 0.13150246 -0.57304627 -0.32551745 -0.29322094 0.1225357 0.23964135 0.23226587
0.0769432 0.17423156 -0.28582528 -0.42667368 -0.54468775 -0.0378485 0.34629986 0.064883344
0.14599818 -0.23248067 0.28238508 -0.12892576 0.08827056 0.21059218 -0.31049258 0.04033685
0.25567424 0.11596256 0.05459142 0.24919514 0.33637857 -0.2585051 0.07213283 -0.41091847
-0.84352905 -0.3933217 0.21107835 -0.0455718 -0.20455693 -0.0799308 -0.056382187 -0.49366942
-0.29626766 -0.2973959 -0.1461335 0.26547664 0.25438365 -0.3701128 0.07290492 0.05728326
-0.10495484 -0.50344586 -0.21896379 -0.3298646 -0.5699532 0.14414228 -0.29172453 0.03900863
00000000: 5c50 b93d 2658 bc3d de06 fcbc 32b5 16bf
00000010: 8171 0f3e 2504 74bc 50f9 4cbe 5f44 1f3e
00000020: 2850 cdbe b189 98bd 28a1 10bf 69e9 c4bd
00000030: c05f 0ebf 724e 013e b413 33bd 62ec fc3d
00000040: 3291 a83d ec88 bb3d a785 233d 9817 d5be
00000050: 6ec6 c53d 63c9 f53b 7e47 6ebe 2952 af3d
00000060: 7d37 49be 8cff 243e 4c50 a7be d5e3 e43a
00000070: 6b0a 483e ffe9 1e3c 9787 b63d 8be3 50be
00000080: 9721 4cbf efa1 163e b37d 27be f467 40be
00000090: ec43 30bd 7d48 393d 9544 f6bc 2560 9cbc
000000a0: 9488 cebd c60c 3abf f75b 3cbe 8c5d aabe
000000b0: a34a d53d 8154 7d3c d312 c9bd 6a01 5ebe
000000c0: caea 1abe 8a67 293e bc08 4d3e 77bb d23d
000000d0: 97f9 fa3d 7a31 c83b 50ec 43be ca25 4d3e
000000e0: f0e2 d23c 37be b6be b4c7 96be 2d07 563e
000000f0: c284 4a3e a3a8 adbe 6665 ebbd 83b7 92bd
00000100: 8355 08bf d5bf 893d fc86 57be 887b d6be
00000110: 1c77 06bc a897 5b3e e28b c93d 7a14 bdbe
00000120: e7a9 d13d 1288 acbe cc3d 29be 89ca 88bd
00000130: 8b0d 3cbd 2c4a bebe a785 29be 24ba 6cbe
00000140: a351 2e3e fbeb c9be bdf7 cfbd 3e4e 3a3e
00000150: 93c0 10be ae20 a33d b507 923e bf59 cabe
00000160: 9243 023e f079 02bf 3648 0c3e 2812 35bf
00000170: 34a5 883b 47e3 2ebf 1705 5f3e 08c4 52be
00000180: 9194 42bf 4698 bcbe b7a4 51be 7713 50be
00000190: a489 25bf 37d7 02be a35c a33d 0493 ffbe
000001a0: 0110 0fbe 10b8 fb3c 7c17 03bf 9172 88be
000001b0: 0afa cd3d 61f2 ccbe 55e1 423e c82b 0b3e
000001c0: a775 81be 5b18 dc3d 832b 753e d8d0 ed3c
000001d0: dad7 583e 20e5 29be 28e8 b13d 5fe2 42be
000001e0: d1f1 4b3e 97c6 babe 8553 303d bfa1 bfbc
000001f0: d8b0 213e d3be 7bbe 3df7 7d3d 690d f3be
00000200: 4bb8 54be 9634 61be a3c8 e73d 69db 973d
00000210: f9ff de3b 627b c5be bad5 a8bc cec7 16bf
00000220: 356c 913e 4707 90be 294b d8be 3fd2 e83d
00000230: 0c28 b03c 7958 2d3e b92a 87be d067 44be
00000240: 20d4 f1be 4d8c b4be e687 17bf 8ed5 8a3e
00000250: 991b 82be b27d 003e 93f7 75bc a243 a7bd
00000260: a105 71be 2e44 3a3d d267 463e b10c 183e
00000270: 6952 86be f8ce e23d 076f 97be fa8c cc3e
00000280: 7004 4b3e 5c3b 99bd a9f1 69be 1ef8 5b3e
00000290: 54b0 883e b150 fbbe 6b38 253e bab3 b53d
000002a0: f21a b0be 6a42 1e3e 0da4 91be 9903 ad3d
000002b0: 916f 0dbf 43c3 fb3d 656e 863e c20f 44be
000002c0: f514 3a3e 421f cbbe d45c cbbd 4472 5b3c
000002d0: 4525 203d 34da 643c d9f3 a7bd 1d0f 8a3e
000002e0: e1d5 42bf 7bfe 013d 8e4e 343e db58 80be
000002f0: 9b4d 50bf e4cb 59bc 3095 cbbd fdab 16be
00000300: 1c1f 573e 8624 0ebe da89 edbe 518a 0bbe
00000310: c587 db3e f21f 993d f8ba e1bd 66e2 5abe
00000320: 2c16 d8bd 95a8 063e 29b3 12bf 39aa a6be
00000330: 0e21 96be fff3 fa3d 8b64 753e 1bd7 6d3e
00000340: 6594 9d3d c269 323e b157 92be f974 dabe
00000350: a870 0bbf 0707 1bbd 374e b13e 8fe1 843d
00000360: 8c80 153e 6a0f 6ebe c794 903e 1d05 04be
00000370: 32c7 b43d 7aa5 573e e2f8 9ebe 4138 253d
00000380: bce7 823e c77d ed3d 419b 5f3d 032d 7f3e
00000390: d039 ac3e c85a 84be 61ba 933d e863 d2be
000003a0: 85f1 57bf 7661 c9be ec24 583e 7fa9 3abd
000003b0: 5f77 51be c2b2 a3bd 02f1 66bd 3dc2 fcbe
000003c0: 65b0 97be 4744 98be 05a4 15be 8eec 873e
000003d0: 933e 823e 6d7f bdbe 2d4f 953d daa1 6a3d
000003e0: 90f2 d6bd d4e1 00bf 0b38 60be 03e4 a8be
000003f0: 74e8 11bf 099a 133e eb5c 95be 83c7 1f3d

fc.3.bias f4 [10]
-0.029152589 -0.0065575475 0.030988015 0.017219165 0.15134557 0.3280169 -0.08547968 0.027465556
-0.027673967 0.098004095
00000000: 69d1 eebc b2e0 d6bb 94da fd3c 350f 8d3c
00000010: 55fa 1a3e d5f1 a73e f80f afbd 72ff e03c
00000020: 84b4 e2bc 5fb6 c83d
